…
Running script with arguments: Namespace(input_channels=45, input_size=[16, 16], modality='hyper', num_classes=3, test_folder=['/mmfs1/gscratch/stf/upanpra/AK_paper_data/16crops/hardwood_vs_softwood/vis/test', '/mmfs1/gscratch/stf/upanpra/AK_paper_data/16crops/hardwood_vs_softwood/chm/test'], train_folder=['/mmfs1/gscratch/stf/upanpra/AK_paper_data/16crops/hardwood_vs_softwood/vis/train', '/mmfs1/gscratch/stf/upanpra/AK_paper_data/16crops/hardwood_vs_softwood/chm/train'])
tensor([ … )
tensor([… )
Saving model to: /mmfs1/gscratch/stf/upanpra/model_checkpointsAK/best-test-model-Visconv_next_model-1700275029.3042297.pt
shape of mean, torch.Size([45])
shape of std, torch.Size([45])
ConvNeXt(
  (features): Sequential(
    (0): Conv2dNormActivation(
      (0): Conv2d(45, 128, kernel_size=(3, 3), stride=(1, 1), padding=(1, 1))
      (1): LayerNorm2d((128,), eps=1e-06, elementwise_affine=True)
    )
    (1): Dropout(p=0.0, inplace=False)
    (2): Sequential(
      (0): CNBlock(
        (block): Sequential(
          (0): Conv2d(128, 128, kernel_size=(3, 3), stride=(1, 1), padding=(1, 1), groups=128)
          (1): Dropout(p=0.0, inplace=False)
          (2): Permute()
          (3): LayerNorm((128,), eps=1e-06, elementwise_affine=True)
          (4): Linear(in_features=128, out_features=512, bias=True)
          (5): GELU()
          (6): Linear(in_features=512, out_features=128, bias=True)
          (7): Permute()
        )
        (stochastic_depth): StochasticDepth(p=0.0, mode=row)
      )
      (1): CNBlock(
        (block): Sequential(
          (0): Conv2d(128, 128, kernel_size=(3, 3), stride=(1, 1), padding=(1, 1), groups=128)
          (1): Dropout(p=0.0, inplace=False)
          (2): Permute()
          (3): LayerNorm((128,), eps=1e-06, elementwise_affine=True)
          (4): Linear(in_features=128, out_features=512, bias=True)
          (5): GELU()
          (6): Linear(in_features=512, out_features=128, bias=True)
          (7): Permute()
        )
        (stochastic_depth): StochasticDepth(p=0.0, mode=row)
      )
      (2): CNBlock(
        (block): Sequential(
          (0): Conv2d(128, 128, kernel_size=(3, 3), stride=(1, 1), padding=(1, 1), groups=128)
          (1): Dropout(p=0.0, inplace=False)
          (2): Permute()
          (3): LayerNorm((128,), eps=1e-06, elementwise_affine=True)
          (4): Linear(in_features=128, out_features=512, bias=True)
          (5): GELU()
          (6): Linear(in_features=512, out_features=128, bias=True)
          (7): Permute()
        )
        (stochastic_depth): StochasticDepth(p=0.0, mode=row)
      )
    )
    (3): Sequential(
      (0): LayerNorm2d((128,), eps=1e-06, elementwise_affine=True)
      (1): Conv2d(128, 192, kernel_size=(2, 2), stride=(2, 2))
    )
    (4): Sequential(
      (0): CNBlock(
        (block): Sequential(
          (0): Conv2d(192, 192, kernel_size=(3, 3), stride=(1, 1), padding=(1, 1), groups=192)
          (1): Dropout(p=0.0, inplace=False)
          (2): Permute()
          (3): LayerNorm((192,), eps=1e-06, elementwise_affine=True)
          (4): Linear(in_features=192, out_features=768, bias=True)
          (5): GELU()
          (6): Linear(in_features=768, out_features=192, bias=True)
          (7): Permute()
        )
        (stochastic_depth): StochasticDepth(p=0.0, mode=row)
      )
    )
  )
  (avgpool): AdaptiveAvgPool2d(output_size=1)
  (final_dropout): Dropout(p=0.0, inplace=False)
  (classifier): Sequential(
    (0): LayerNorm2d((192,), eps=1e-06, elementwise_affine=True)
    (1): Flatten(start_dim=1, end_dim=-1)
    (2): Linear(in_features=192, out_features=3, bias=True)
  )
)
28337917.156469163
Traceback (most recent call last):
  File "/mmfs1/gscratch/stf/upanpra/AK_train_scripts/train_script_parameterized.py", line 151, in <module>
    main()
  File "/mmfs1/gscratch/stf/upanpra/AK_train_scripts/train_script_parameterized.py", line 123, in main
    net, train_history, test_history = trainCNN(net, train_loader, test_loader,
…
