Running script with arguments: Namespace(input_channels=44, input_size=[16, 16], modality='hyper', num_classes=3, test_folder=['/mmfs1/gscratch/stf/upanpra/AK_paper_data/16crops/hardwood_vs_softwood/vis/test'], train_folder=['/mmfs1/gscratch/stf/upanpra/AK_paper_data/16crops/hardwood_vs_softwood/vis/train'])
tensor([ … )
tensor([… )
Saving model to: /mmfs1/gscratch/stf/upanpra/model_checkpointsAK/best-test-model-Visconv_next_model-1700289733.2867618.pt
ConvNeXt(
  (features): Sequential(
    (0): Conv2dNormActivation(
      (0): Conv2d(44, 128, kernel_size=(3, 3), stride=(1, 1), padding=(1, 1))
      (1): LayerNorm2d((128,), eps=1e-06, elementwise_affine=True)
    )
    (1): Dropout(p=0.0, inplace=False)
    (2): Sequential(
      (0): CNBlock(
        (block): Sequential(
          (0): Conv2d(128, 128, kernel_size=(3, 3), stride=(1, 1), padding=(1, 1), groups=128)
          (1): Dropout(p=0.0, inplace=False)
          (2): Permute()
          (3): LayerNorm((128,), eps=1e-06, elementwise_affine=True)
          (4): Linear(in_features=128, out_features=512, bias=True)
          (5): GELU()
          (6): Linear(in_features=512, out_features=128, bias=True)
          (7): Permute()
        )
        (stochastic_depth): StochasticDepth(p=0.0, mode=row)
      )
      (1): CNBlock(
        (block): Sequential(
          (0): Conv2d(128, 128, kernel_size=(3, 3), stride=(1, 1), padding=(1, 1), groups=128)
          (1): Dropout(p=0.0, inplace=False)
          (2): Permute()
          (3): LayerNorm((128,), eps=1e-06, elementwise_affine=True)
          (4): Linear(in_features=128, out_features=512, bias=True)
          (5): GELU()
          (6): Linear(in_features=512, out_features=128, bias=True)
          (7): Permute()
        )
        (stochastic_depth): StochasticDepth(p=0.0, mode=row)
      )
      (2): CNBlock(
        (block): Sequential(
          (0): Conv2d(128, 128, kernel_size=(3, 3), stride=(1, 1), padding=(1, 1), groups=128)
          (1): Dropout(p=0.0, inplace=False)
          (2): Permute()
          (3): LayerNorm((128,), eps=1e-06, elementwise_affine=True)
          (4): Linear(in_features=128, out_features=512, bias=True)
          (5): GELU()
          (6): Linear(in_features=512, out_features=128, bias=True)
          (7): Permute()
        )
        (stochastic_depth): StochasticDepth(p=0.0, mode=row)
      )
    )
    (3): Sequential(
      (0): LayerNorm2d((128,), eps=1e-06, elementwise_affine=True)
      (1): Conv2d(128, 192, kernel_size=(2, 2), stride=(2, 2))
    )
    (4): Sequential(
      (0): CNBlock(
        (block): Sequential(
          (0): Conv2d(192, 192, kernel_size=(3, 3), stride=(1, 1), padding=(1, 1), groups=192)
          (1): Dropout(p=0.0, inplace=False)
          (2): Permute()
          (3): LayerNorm((192,), eps=1e-06, elementwise_affine=True)
          (4): Linear(in_features=192, out_features=768, bias=True)
          (5): GELU()
          (6): Linear(in_features=768, out_features=192, bias=True)
          (7): Permute()
        )
        (stochastic_depth): StochasticDepth(p=0.0, mode=row)
      )
    )
  )
  (avgpool): AdaptiveAvgPool2d(output_size=1)
  (final_dropout): Dropout(p=0.0, inplace=False)
  (classifier): Sequential(
    (0): LayerNorm2d((192,), eps=1e-06, elementwise_affine=True)
    (1): Flatten(start_dim=1, end_dim=-1)
    (2): Linear(in_features=192, out_features=3, bias=True)
  )
)
28338162.2220166
Epoch [1/100], Step [100/178], Loss: 0.7575
Epoch [1/100], Train Acc 62.74%, Test Acc 64.04%
Epoch [2/100], Step [100/178], Loss: 0.7334
Epoch [2/100], Train Acc 66.37%, Test Acc 63.35%
Epoch [3/100], Step [100/178], Loss: 0.6295
Epoch [3/100], Train Acc 69.41%, Test Acc 66.39%
Epoch [4/100], Step [100/178], Loss: 0.5403
Epoch [4/100], Train Acc 70.57%, Test Acc 69.71%
…
